…
= load_model_and_tokenizer_with_peft(base_model_id)\n","llama_model = llama_model.to(\"cuda\" if torch.cuda.is_available() else \"cpu\")\n","llama_model"],"metadata":{"colab":{"base_uri":"https://localhost:8080/"},"id":"Xvl3X8OOiGl_","executionInfo":{"status":"ok","timestamp":1740646590021,"user_tz":-420,"elapsed":19460,"user":{"displayName":"Minh Nam TRAN","userId":"01397360029704440675"}},"outputId":"f048dc2f-9a77-448e-9c4f-88dc406ca2ee"},"execution_count":null,"outputs":[{"output_type":"execute_result","data":{"text/plain":["LlamaForCausalLM(\n","  (model): LlamaModel(\n","    (embed_tokens): Embedding(128256, 2048)\n","    (layers): ModuleList(\n","      (0-15): 16 x LlamaDecoderLayer(\n","        (self_attn): LlamaAttention(\n","          (q_proj): Linear(in_features=2048, out_features=2048, bias=False)\n","          (k_proj): Linear(in_features=2048, out_features=512, bias=False)\n","          (v_proj): Linear(in_features=2048, out_features=512, bias=False)\n","          (o_proj): Linear(in_features=2048, out_features=2048, bias=False)\n","        )\n","        (mlp): LlamaMLP(\n","          (gate_proj): Linear(in_features=2048, out_features=8192, bias=False)\n","          (up_proj): Linear(in_features=2048, out_features=8192, bias=False)\n","          (down_proj): Linear(in_features=8192, out_features=2048, bias=False)\n","          (act_fn): SiLU()\n","        )\n","        (input_layernorm): LlamaRMSNorm((2048,), eps=1e-05)\n","        (post_attention_layernorm): LlamaRMSNorm((2048,), eps=1e-05)\n","      )\n","    )\n","    (norm): LlamaRMSNorm((2048,), eps=1e-05)\n","    (rotary_emb): LlamaRotaryEmbedding()\n","  )\n","  (lm_head): Linear(in_features=2048, out_features=128256, bias=False)\n",")"]},"metadata":{},"execution_count":5}]},{"cell_type":"code","source":["peft_model, peft_tokenizer = load_model_and_tokenizer_with_peft(peft_model_id)\n","peft_model = peft_model.to(\"cuda\" if torch.cuda.is_available() else \"cpu\")\n","peft_model"],"metadata":{"colab":{"base_uri":"https://localhost:8080/"},"id":"cea5NIE5iSEQ","executionInfo":{"status":"ok","timestamp":1740646601531,"user_tz":-420,"elapsed":11522,"user":{"displayName":"Minh Nam TRAN","userId":"01397360029704440675"}},"outputId":"2265dcf9-e59a-4e6d-9de6-d635737bf604"},"execution_count":null,"outputs":[{"output_type":"execute_result","data":{"text/plain":["PeftModelForCausalLM(\n","  (base_model): LoraModel(\n","    (model): LlamaForCausalLM(\n","      (model): LlamaModel(\n","        (embed_tokens): Embedding(128256, 2048)\n","        (layers): ModuleList(\n","          (0-15): 16 x LlamaDecoderLayer(\n","            (self_attn): LlamaAttention(\n","              (q_proj): lora.Linear(\n","                (base_layer): Linear(in_features=2048, out_features=2048, bias=False)\n","                (lora_dropout): ModuleDict(\n","                  (default): Dropout(p=0.1, inplace=False)\n","                )\n","                (lora_A): ModuleDict(\n","                  (default): Linear(in_features=2048, out_features=8, bias=False)\n","                )\n","                (lora_B): ModuleDict(\n","                  (default): Linear(in_features=8, out_features=2048, bias=False)\n","                )\n","                (lora_embedding_A): ParameterDict()\n","                (lora_embedding_B): ParameterDict()\n","                (lora_magnitude_vector): ModuleDict()\n","              )\n","              (k_proj): Linear(in_features=2048, out_features=512, bias=False)\n","              (v_proj): lora.Linear(\n","                (base_layer): Linear(in_features=2048, out_features=512, bias=False)\n","                (lora_dropout): ModuleDict(\n","                  (default): Dropout(p=0.1, inplace=False)\n","                )\n","                (lora_A): ModuleDict(\n","                  (default): Linear(in_features=2048, out_features=8, bias=False)\n","                )\n","                (lora_B): ModuleDict(\n","                  (default): Linear(in_features=8, out_features=512, bias=False)\n","                )\n","                (lora_embedding_A): ParameterDict()\n","                (lora_embedding_B): ParameterDict()\n","                (lora_magnitude_vector): ModuleDict()\n","              )\n","              (o_proj): Linear(in_features=2048, out_features=2048, bias=False)\n","            )\n","            (mlp): LlamaMLP(\n","              (gate_proj): Linear(in_features=2048, out_features=8192, bias=False)\n","              (up_proj): Linear(in_features=2048, out_features=8192, bias=False)\n","              (down_proj): Linear(in_features=8192, out_features=2048, bias=False)\n","              (act_fn): SiLU()\n","            )\n","            (input_layernorm): LlamaRMSNorm((2048,), eps=1e-05)\n","            (post_attention_layernorm): LlamaRMSNorm((2048,), eps=1e-05)\n","          )\n","        )\n","        (norm): LlamaRMSNorm((2048,), eps=1e-05)\n","        (rotary_emb): LlamaRotaryEmbedding()\n","      )\n","      (lm_head): Linear(in_features=2048, out_features=128256, bias=False)\n","    )\n","  )\n",")"]},"metadata":{},"execution_count":6}]},{"cell_type":"markdown","metadata":{"id":"Uu_uWRd5Sy-S"},"source":["## Load Dataset and Format"]},{"cell_type":"code","execution_count":null,"metadata":{"id":"ftdxC9OoPSgT","colab":{"base_uri":"https://localhost:8080/"},"executionInfo":{"status":"ok","timestamp":1740646604975,"user_tz
…
